11weeks/cifar_net.pth (torch, 251167 bytes, 10 tensors)

conv1.weight f4 [6, 3, 5, 5]
000000 78 c9 70 3d 6e ff a1 bd 4a 01 8a bc 68 2e 14 3d
       0.058785886 -0.079100475 -0.016846318 0.03617707
000010 19 4d f9 bd be 4c db 3d 87 2c ad 3e 54 73 a7 3e
       -0.12172908 0.10707997 0.33823034 0.32705176
000020 df 8a d8 3e c7 3c 80 3e 32 5f 74 be ba 31 7d be
       0.4229345 0.2504637 -0.23864439 -0.24726
000030 9f 0e 78 be 2c c5 cc bd f5 c0 4d be 41 5e 66 be
       -0.24224328 -0.09998545 -0.20093139 -0.22496893
000040 84 a5 d4 be 00 7e e2 be 32 ed d0 be e5 8b b6 be
       -0.41532528 -0.44236755 -0.40805966 -0.35653606
000050 17 31 65 bd cc 56 cc 3d 3a 64 e3 bd 39 77 c3 bd
       -0.05595502 0.09977493 -0.11103101 -0.09544224
000060 d6 1b aa bd 80 5f 16 3e 12 59 df 3d 4b 78 2e 3d
       -0.083060905 0.14684868 0.10905661 0.04259519
000070 81 50 d2 bd 55 35 d8 3d 5f c1 c1 3e 04 07 a0 3e
       -0.10269261 0.10557047 0.37842843 0.31255352
000080 dc 44 05 3f ff bc e3 3e e6 bf 9b 3e ec 30 9c bd
       0.52058196 0.4448013 0.30419844 -0.076265186
000090 6d a9 7f 3d ac 05 00 3e 66 91 c5 3d b9 0e 9a bc
       0.062417436 0.12502164 0.09646873 -0.018805848
0000a0 ef e1 f8 bd a8 4f 48 be 71 32 4e be 39 0d 65 bd
       -0.121524684 -0.19561636 -0.2013643 -0.055920813
0000b0 16 c7 04 be 32 e4 9b 3d b4 78 51 3e 1c 65 46 3d
       -0.1296657 0.07611884 0.20456201 0.04843627
0000c0 c6 db 82 3d 32 52 d5 3d 5e 38 1e be a9 e2 0d be
       0.06389575 0.10416068 -0.1545119 -0.13855995
0000d0 b7 c3 1c be 3d 2a 98 be 8a 61 6a be 70 ec 5a 3e
       -0.15309034 -0.29719725 -0.2288877 0.21379256
0000e0 77 2c 29 3e 5c b5 1e 3e 3a cc 74 3e 06 52 ac 3c
       0.16520868 0.1549887 0.23906031 0.021035206
0000f0 85 20 14 be e4 5e cb bd f9 db 4d bd bd e1 17 bd
       -0.1446553 -0.09930208 -0.05025861 -0.037080515
000100 4a 62 e6 bc 58 80 58 be 58 94 42 bd 8a 61 a6 be
       -0.02812304 -0.2114271 -0.047504753 -0.3249629
000110 a9 ff ad bd fc c3 39 be e2 72 7c 3e 92 38 ea 3d
       -0.08496029 -0.18141168 0.246532 0.11436571
000120 9a 75 14 3e 2b f0 1a 3d f5 07 b0 3d 43 f9 60 bd
       0.14497986 0.0378267 0.08595268 -0.054925214
000130 7d 2a 16 bd 86 92 12 be f0 68 4d be f7 0c 0c bd
       -0.036661614 -0.14313707 -0.20059562 -0.03419205
000140 0c ed de bc 77 60 45 3e 12 9d 92 3c fe b2 d9 3c
       -0.027212642 0.1927508 0.017897163 0.026574608
000150 ff ae 28 bc fa d3 c6 3d dc e5 3d 3e 07 0c 1a 3e
       -0.010295629 0.097084 0.18544716 0.1504365
000160 de 8c 9a 3d 03 87 81 3c 50 a6 ec 3d 8e 68 7a 3d
       0.075463995 0.015811449 0.11555159 0.061134867
000170 77 3e 6f 3e 41 c6 42 3e 0e 51 52 3e 2b 84 ba 3d
       0.23363672 0.1902094 0.20538732 0.0910724
000180 2b 74 e9 3d 0b 64 e0 3d 2c 1b 6d 3e f9 be 08 3e
       0.113991104 0.10956582 0.23154896 0.133541
000190 dd e5 3f bd 60 0b ff bd f7 61 04 be af f3 01 bd
       -0.046850074 -0.124533415 -0.12927996 -0.031726535
0001a0 9a 13 2a be 07 df 77 3c 11 08 94 3d b8 b2 4d bc
       -0.1660904 0.015128857 0.07228101 -0.012554817
0001b0 4f 6d c7 bd f2 73 f2 bd 35 42 3c bd 4f 33 d4 3d
       -0.09737646 -0.11838521 -0.045961577 0.10361349
0001c0 6d e1 42 3d 3c ad c4 ba 33 08 62 bd c6 71 15 be
       0.047578264 -0.0015005241 -0.0551836 -0.14594182
0001d0 45 e8 aa 3d 90 5e 09 bd d5 6e 09 bd 2e eb 8b bd
       0.08345083 -0.033537447 -0.033552963 -0.06831966
0001e0 9d d3 6a be 8a f8 65 bd d0 e8 b8 bd 39 2f fd bd
       -0.22932287 -0.05614523 -0.090287805 -0.12362523
0001f0 89 1a 2c be 63 96 fc 3d 7c e7 b4 3e 75 13 84 3e
       -0.16806997 0.123333715 0.3533286 0.25796095
000200 29 39 bf 3d 49 b1 5a 3c fc cf 5e 3e d7 65 53 3e
       0.09337074 0.013347932 0.21759027 0.20644318
000210 e3 98 94 3e d9 78 0c 3e fe 90 38 3d c6 fe b7 3d
       0.29022893 0.13717975 0.04506015 0.08984141
000220 e9 d8 0c 3e ac f4 83 3e f6 a8 97 3d b0 8e 94 bd
       0.1375462 0.25772607 0.074052736 -0.07253778
000230 9f 14 8d bc f2 da 0c 3e 69 ab 48 3e b3 0a d1 3d
       -0.017221747 0.13755396 0.19596638 0.10207119
000240 84 f1 fb bd 99 d8 8b bd 43 6a 68 3d cb e7 8b 3d
       -0.12301925 -0.06828422 0.056741964 0.068313204
000250 3d 2c cd 3d 5b 99 a9 bd 5f 9b 16 3e 3d 30 59 3e
       0.100182034 -0.08281203 0.14707707 0.21209808
000260 73 39 3f 3e 4f b0 45 3e ba 71 9c 3e ed ff 9a bd
       0.18674259 0.19305538 0.30555516 -0.07568345
000270 6a 13 ee 3d e1 70 3f 3e c5 d9 18 3e 87 b7 8b 3d
       0.11624797 0.18695404 0.14926822 0.068221144
000280 2b 0c c0 bb a1 84 e3 bd 73 f3 39 bc ed 99 97 bd
       -0.0058608255 -0.11109281 -0.011349547 -0.07402406
000290 48 ed 0c be f7 81 f2 bd 13 c0 6e be 7c ac 07 be
       -0.1376239 -0.11841195 -0.23315458 -0.13249391
0002a0 40 8e 60 be da 2e 52 be d0 9a 8c bd cd 2f 85 3d
       -0.21929264 -0.20525685 -0.06865466 0.06503258
0002b0 ad b0 1f 3d 24 01 a5 3c 71 85 a9 ba 8a ce c6 be
       0.03898685 0.020142145 -0.0012933445 -0.38829452
0002c0 a6 b2 7a be d3 21 c7 bc 9f 19 bd bd 95 fa 6b be
       -0.24482211 -0.02430812 -0.092334025 -0.23044808
0002d0 2e ff 6f be e9 80 89 be 56 e9 91 be 3b 2c 43 be
       -0.23437187 -0.26856163 -0.28498334 -0.19059841
0002e0 d4 41 28 bd 0f bd 9c be 5c 64 8c be 23 f3 a9 be
       -0.041078404 -0.3061299 -0.27420318 -0.3319331
0002f0 97 38 a2 be ff 73 68 be 8b 68 26 be 66 06 d8 bd
       -0.316838 -0.22700499 -0.16250817 -0.105480954
000300 ae fa 0f be b7 4d 18 be 60 2a 8d be 24 ae 79 3c
       -0.1406047 -0.14873396 -0.27571392 0.015239272
000310 33 05 39 3e f9 b7 59 3e 13 62 8b bc 4e 99 42 bd
       0.1806839 0.21261586 -0.017014539 -0.047509484
000320 98 e2 70 be 67 f9 1c 3d 01 0d 47 bd 32 a1 a5 bd
       -0.23523939 0.038323786 -0.048596386 -0.08087386
000330 d0 d1 bd bd dc 1f 02 be ed 0c bf bd 62 ab fe 3c
       -0.09268534 -0.12707466 -0.09328637 0.031087581
000340 13 b4 e8 bd 98 ec bc bd f5 31 bc 3d c8 49 be 3d
       -0.113624714 -0.09224814 0.09189216 0.092914164
000350 2a 20 4e 3d 2b 6d 44 be aa cc 20 3d df ac 76 3d
       0.050323643 -0.1918227 0.039257683 0.060223456
000360 4b e3 49 3e 06 a6 a4 3d 40 43 51 bd b4 65 e4 bd
       0.19715612 0.08039479 -0.051089525 -0.11152211
000370 34 d5 af 3e a1 0d 9a 3e df 79 a4 3e cd e9 d1 3e
       0.3434235 0.30088523 0.3212423 0.40998688
000380 b8 79 67 3e 5d 6d 53 be 96 23 72 3e 57 df 69 3d
       0.22605026 -0.20647188 0.23646387 0.05709776
000390 8a 05 8a be da cf 10 3e 4b 1c 9f bc f0 11 78 3e
       -0.2695735 0.14141789 -0.01942267 0.24225593
0003a0 6b 42 a8 3e 25 1a ff be 19 43 34 be fc 34 e2 3d
       0.32863173 -0.49824634 -0.1760372 0.11045262
0003b0 39 51 17 3e 21 bc 5d 3d 4a a8 85 be 5f 4d cf be
       0.14777078 0.05413449 -0.26104957 -0.40488717
0003c0 8f b9 a6 3d 33 76 9c bd 00 d7 12 bd e1 f5 88 bd
       0.08140861 -0.07639732 -0.03584957 -0.06687523
0003d0 a2 af 66 be 94 87 3d bd a8 ea 90 be e5 e3 18 be
       -0.22527936 -0.046271876 -0.2830403 -0.14930685
0003e0 69 ec 97 bd e7 86 b9 3d 08 06 d0 3d 21 97 ad 3e
       -0.074181385 0.09058934 0.101574 0.33904365
0003f0 0e 10 59 3e 82 34 a5 be da 93 bb bd 4f fc 1f 3d
       0.2119753 -0.32266623 -0.0915906 0.03905898

conv1.bias f4 [6]
000000 c4 d4 61 be 97 8f 72 3d da c8 00 bf c0 da 29 3e
       -0.2205382 0.05921897 -0.50306475 0.16587353
000010 df a5 ae be e0 8d 1b 3f
       -0.34110925 0.6076336

conv2.weight f4 [16, 6, 5, 5]
000000 e9 d8 ea bd 3d 82 95 bd 2f 44 82 bd 92 81 99 bc
       -0.114671536 -0.073002316 -0.06360661 -0.018738542
000010 7b e0 b9 bc d9 7a e3 3b 18 c8 ba 3d 0d 49 46 bd
       -0.022690048 0.006942135 0.09120196 -0.04840951
000020 22 4a 16 3d 42 5c df 3d 26 97 48 bc 8c 06 0f 3d
       0.036691792 0.10906269 -0.012243068 0.034918353
000030 3a f7 24 bd 12 f7 a3 3d ad 5e 63 3d 2a 15 55 3e
       -0.040274836 0.08006109 0.05551021 0.20808855
000040 b3 07 a7 3d 3d 05 2e 3e 41 ab d8 3d cd ad dc bb
       0.081557654 0.16994186 0.10579539 -0.006734586
000050 f5 3e b1 bc 3e e2 5b 3d e7 0e c0 bd bf 3a 84 3d
       -0.021636466 0.05368256 -0.093778424 0.064565174
000060 52 c7 98 bc 0b 40 49 bd 44 5e 34 be bb 67 4d be
       -0.01864973 -0.04913334 -0.17614084 -0.20059101
000070 c7 32 72 be 54 e7 ca bd dc 41 ce 3c b0 84 17 bc
       -0.23652183 -0.099074036 0.025177889 -0.009247944
000080 12 fb 31 be 01 f9 04 be 22 1b 0c ba c9 70 e2 3d
       -0.17380932 -0.12985612 -0.0005344619 0.11056668
000090 e3 90 2e bc 24 a1 2a be ce 03 15 be d7 40 d2 bc
       -0.010654661 -0.16663033 -0.14552233 -0.025665684
0000a0 fb 95 28 3c f7 c3 2b bd a5 20 0e be 9b 59 49 bd
       0.010289664 -0.041934934 -0.1387964 -0.04915772
0000b0 2a f9 87 bd 51 1a 3f 3c 78 27 9e 3b 27 36 2c 3c
       -0.06639321 0.011663989 0.0048264824 0.010510958
0000c0 61 e6 20 bd a7 2e 02 be 25 40 d8 3c ec 08 88 bd
       -0.039282206 -0.12713109 0.026397774 -0.06642327
0000d0 4f 16 b0 bd 8a 09 45 bd aa 02 f7 3c a2 90 ac bd
       -0.08598005 -0.0481048 0.030152638 -0.08426024
0000e0 5a 5d 1d be 9f 71 f2 bc 10 27 cd bd c7 41 aa bd
       -0.15367642 -0.029595194 -0.10017216 -0.08313327
0000f0 ca a1 e4 bd 80 a8 f5 bd 00 93 14 be 3e c4 ab 3b
       -0.11163671 -0.119950294 -0.14509201 0.0052418998
000100 d1 e0 7b ba e4 a4 97 bc dc c6 69 bd 7f 00 0c be
       -0.00096083904 -0.018511243 -0.057074413 -0.13672064
000110 99 9a 49 bd d6 e1 e3 bd e5 e3 0d be 54 99 0f be
       -0.0492197 -0.11127059 -0.13856466 -0.14023334
000120 ff 33 8b bd 94 e3 0b be af 73 5a be 20 10 4a 3d
       -0.06797027 -0.13661033 -0.21333192 0.049331784
000130 78 9d 9b 3d 4c a2 08 3e a1 82 71 3c 2b c5 c9 bd
       0.07598394 0.13343161 0.014740617 -0.0985206
000140 60 a5 05 be 0d b2 ac 3d 52 e8 aa 3c 11 35 34 3e
       -0.13051367 0.08432398 0.020862732 0.17598368
000150 cb c9 1a 3d 9c fb 80 bd 5f f6 01 3d 8b 8f 94 3d
       0.0377901 -0.06297991 0.0317291 0.07253941
000160 12 db bc 3d ea fc 99 3d 0f 72 af bd c1 f1 0b be
       0.09221472 0.07518943 -0.08566677 -0.1366644
000170 ef 62 29 3e f0 cb c8 3d de 5a c0 3d e2 49 58 3d
       0.16541646 0.09804523 0.093923315 0.052804835
000180 15 ce 7e 3d f5 2b 0b 3e 35 84 71 3d 87 0d 0a 3e
       0.062208254 0.13590987 0.058963973 0.13481723
000190 17 11 ec bc 95 8c 3f bd 99 7f 6e 3d 06 11 a0 3c
       -0.028816743 -0.04676493 0.058227155 0.019539367
0001a0 20 10 6d bc ce e7 4d be ce 6b 1e be e4 0e 07 be
       -0.0144691765 -0.20107958 -0.15470812 -0.13189274
0001b0 c1 4f f2 bd 6f b9 8b 3c 5d ad 5b bd 17 94 41 be
       -0.11831618 0.017056195 -0.05363213 -0.18904148
0001c0 b8 fb 1f be 27 33 78 bd 89 62 8e bd 97 f5 70 bd
       -0.15623367 -0.060595658 -0.06952388 -0.058827963
0001d0 93 62 0b bd 0a 72 5f bd fa ba 4e be f0 d0 0a bb
       -0.034029555 -0.054552115 -0.20188513 -0.0021181665
0001e0 57 0a 32 be 26 f6 56 be e3 90 2e be ee dd 90 bd
       -0.17386757 -0.20992336 -0.17047457 -0.0707358
0001f0 ae 69 12 be e1 94 a7 3d 71 e6 02 be 03 e1 21 be
       -0.14298126 0.08182693 -0.12783219 -0.15808491
000200 22 7a b5 bd 1e 97 40 3c 9a 00 b0 3d bd 5d 9b bc
       -0.088611856 0.011754779 0.08593865 -0.018965596
000210 26 99 14 be ff 33 b7 bd e8 b1 21 bd dd 46 2f bd
       -0.14511546 -0.08945464 -0.039476305 -0.04279219
000220 68 6e fd bc d6 f0 9d bd cc bb d7 bd 5a a1 d3 bd
       -0.030936435 -0.077119514 -0.10533866 -0.1033351
000230 a6 36 4e 3d 0a 27 85 bd 8b a5 03 be f3 ea d0 bd
       0.050345086 -0.06501587 -0.12856118 -0.10201063
000240 da 3c d3 bd 7c 93 29 3d 94 36 d0 bb f9 31 24 be
       -0.10314341 0.041400418 -0.0063541625 -0.16034688
000250 ae 99 02 bd 76 d1 02 be 1e 3a 24 3c c0 73 d9 bd
       -0.03188484 -0.12775216 0.010023622 -0.10617781
000260 95 a8 98 bc 85 d2 96 bd ad 39 06 be 9d 63 22 3d
       -0.018635074 -0.07364372 -0.13107939 0.03964578
000270 99 cd 1b bd bd 1d ea bd 40 74 2a be 0b 82 36 be
       -0.03803787 -0.114314534 -0.16645908 -0.17823045
000280 1d 95 04 bd 54 eb 87 3c bd 63 5d bc 80 e6 ad bd
       -0.032368768 0.016591705 -0.013512549 -0.0849123
000290 28 46 7e be 1b ee cc bd 09 55 17 3d 4a 7a 3e bd
       -0.2483145 -0.100063525 0.03694633 -0.046503343
0002a0 43 7f e2 bd 03 0c 66 be d6 f1 cf bd c6 a0 d2 bd
       -0.110594295 -0.2246552 -0.101535484 -0.10284571
0002b0 22 fe 92 bc 54 91 0b bd 75 4e ee bd d0 79 c8 3d
       -0.017943446 -0.034074143 -0.11636058 0.09788859
0002c0 b1 f4 ea 3d 5f 0c 17 3b ad 59 16 3c 10 3d 14 bd
       0.114724524 0.0023048145 0.009176654 -0.036191046
0002d0 13 29 65 3d 1b 98 19 3e 17 cd 96 3d 9b 8c cb bc
       0.055947375 0.1499943 0.073633365 -0.02484732
0002e0 10 25 87 3c 3d a3 98 bd 73 c1 b2 bb 64 61 1b 3e
       0.016497165 -0.0745301 -0.00545519 0.1517387
0002f0 a2 74 a4 bc 91 c9 ac bd ba 06 27 3d 1e d3 c6 3c
       -0.020075146 -0.08436883 0.0407779 0.02427059
000300 10 67 91 3d 55 00 b2 3d 7b 58 a1 bc ea bd 4e 3e
       0.07099736 0.086914696 -0.019695511 0.20189634
000310 65 78 01 3e 80 8c 8e 39 e2 f2 e7 3a 89 d0 08 bc
       0.12643583 0.0002718903 0.0017696286 -0.0083505
000320 43 5c b8 3c 1e 1b b2 3d a1 c0 59 bd 38 93 64 bd
       0.022504931 0.086965784 -0.05316222 -0.05580446
000330 f0 2e 33 bd 8c eb a3 3d 7a ce f6 bd 03 c2 a1 bd
       -0.043745935 0.080039114 -0.12051101 -0.07898333
000340 5d d8 10 3d e2 37 a2 bd 0d 06 26 3e c9 b6 48 3b
       0.03536259 -0.07920815 0.16213246 0.0030626527
000350 eb 71 a5 bd 2e d5 e6 bd ed 17 04 be b3 3d 62 3e
       -0.08078369 -0.112711295 -0.12899752 0.22093849
000360 30 09 2a 3e 4d 3f 18 bd 4f de 5a be b6 04 29 be
       0.16605067 -0.037169743 -0.21373866 -0.16505703
000370 f0 b0 32 3e 9c 6e 0e 3e f0 9b ab bc 82 9a 4e bd
       0.17450309 0.13909382 -0.02094838 -0.05044032
000380 38 c6 07 be 06 23 1e 3e 1d 36 87 3d 84 51 d3 bb
       -0.13259208 0.15443048 0.06602118 -0.0064489264
000390 50 f9 ba 3d 40 8e 17 3d 6e 03 3b be df ca 82 3d
       0.09129584 0.037000895 -0.18263027 0.06386351
0003a0 8c e5 6f 3c 60 cd 3e bd 30 76 17 3c f6 e1 99 be
       0.014642131 -0.04658258 0.009244487 -0.30055207
0003b0 a1 8a 1b be d5 fe 99 3d a7 2d 71 3b 57 66 11 bd
       -0.15189601 0.075193085 0.0036800893 -0.03549799
0003c0 96 9c ea 3c 47 f6 46 be e3 74 35 be f6 e9 75 bd
       0.02863912 -0.19429885 -0.1772037 -0.060037576
0003d0 b0 02 1d bc 44 25 75 3e 59 14 52 3e 1a 55 ef bb
       -0.00958316 0.23939997 0.20515575 -0.007303846
0003e0 6e 29 58 bd 84 16 6e 3d 48 13 d4 3d 52 fd aa bd
       -0.052773885 0.05812694 0.1035524 -0.08349098
0003f0 ee 16 ba 3b 1a 8e b6 bd 74 83 d1 bc 17 db f3 3c
       0.005679003 -0.089138225 -0.025575377 0.029767556

conv2.bias f4 [16]
000000 30 41 5e 3f d1 2e 1a 3f f0 5b 84 3e 6c 7c 20 3e
       0.8681822 0.60227686 0.25851393 0.15672463
000010 83 42 9b 3e b1 90 0a bf 0b 85 e0 be 7c ba 2f bd
       0.30324182 -0.5412703 -0.43851504 -0.042902455
000020 24 27 1f 3f 04 bc da be a5 a4 85 3e eb 88 2a 3b
       0.621691 -0.4272157 0.26102176 0.002602155
000030 36 78 27 be 74 7d a3 bd 2d 2e 5a bc 54 08 0b be
       -0.1635445 -0.07982913 -0.013316673 -0.13577396

fc1.weight f4 [120, 400]
000000 1d c2 f3 bc 40 6a 00 bb d5 ad 8c bc 47 9a 8e bd
       -0.029755646 -0.001959458 -0.017172733 -0.0696302
000010 12 c4 fc bb 69 40 8b bd 4d 00 7d ba d1 ed cc bd
       -0.007713803 -0.06799395 -0.0009651229 -0.100062974
000020 62 ed d3 bd 8d 25 92 bc 2a 9c 39 bd a8 c6 b5 3c
       -0.103480116 -0.017840171 -0.045314945 0.022189453
000030 96 dc f2 bd fa 05 a8 bc 66 f2 73 bc ac ed bc 3c
       -0.1185848 -0.020510662 -0.014889335 0.02306255
000040 cb e1 f2 bc 39 a7 91 3c 0a a4 01 bd 18 22 86 3c
       -0.029648682 0.017779933 -0.03165058 0.016373679
000050 5e 8d db 3d 98 1f 48 3d a6 23 ef 3d 82 54 99 3d
       0.10720323 0.048858255 0.11676721 0.07486822
000060 29 d0 45 3c 99 07 60 bd 8c ff 12 bd 32 4a 4e 3c
       0.012073555 -0.054694746 -0.03588824 0.012590932
000070 84 3c 46 bc d5 70 b2 bd d0 7e 0d bc 9e 79 81 bb
       -0.012099389 -0.08712927 -0.0086361915 -0.0039512655
000080 e6 72 23 bc 82 84 bb 3c ed e1 3c bd b0 6d 2d bd
       -0.009976124 0.022890333 -0.046113897 -0.042340934
000090 7b 41 87 3c da bf 6e bd 27 42 90 3d 7d 48 4c bc
       0.016510716 -0.058288433 0.070438676 -0.012468454
0000a0 ac 02 28 b8 b8 5a ca bb a9 f7 32 bd 6b 66 6d bc
       -4.005681e-05 -0.0061753653 -0.04369322 -0.01448975
0000b0 31 ae 8d bc 65 56 fd bd 60 8e 94 bd cb 59 81 bd
       -0.017294975 -0.12369994 -0.072537184 -0.06315955
0000c0 6e 3c 67 bd 11 16 8a bd 13 d1 2e 3d a6 72 2d 3d
       -0.056454115 -0.0674249 0.042679857 0.042345665
0000d0 35 9f c0 bb ff ab 1d 3d 4d ac 87 3d bd e5 32 3c
       -0.005878354 0.038494106 0.06624661 0.010919032
0000e0 b8 91 ba 3d d2 ec 14 bd 90 3c d4 3c 7e 60 ba 3d
       0.09109825 -0.036358662 0.025907785 0.09100436
0000f0 04 24 b5 ba 04 2b f2 3b 1b fa 3c bc 9b 04 7b 3c
       -0.0013819938 0.007390382 -0.011534239 0.015320922
000100 4c db 49 3d f8 40 04 3d 31 bc 12 3b 10 8a 60 bd
       0.049281403 0.03228852 0.0022390003 -0.054819167
000110 7c af 97 3b 10 bb 89 3d 03 a8 00 bd d2 df 32 bd
       0.0046290737 0.067251325 -0.03141023 -0.043670483
000120 22 ef d5 3c 92 ff b5 3d ba f8 c6 3d d2 41 dd 3c
       0.026115004 0.08886637 0.097154096 0.027008925
000130 a6 e2 35 3d 96 a1 ef bb bd 8e 68 3c 95 a8 64 3c
       0.044405602 -0.0073129637 0.014194188 0.013956209
000140 29 1c 43 bd 52 83 e6 bc 8f a8 dc 3b 40 e4 ba bc
       -0.047634277 -0.02813879 0.006733961 -0.022813916
000150 c4 95 ad bd 30 3d 56 bd 3f bc f4 bb 64 d2 d7 3c
       -0.08475831 -0.052304447 -0.0074687297 0.02634544
000160 e9 48 87 3d 7d f9 68 bc 4d 7a 80 3d c1 40 b2 3d
       0.066057034 -0.014219639 0.06273327 0.08703757
000170 a3 66 9b 3d 45 23 c7 3d 9c 44 e3 3c 19 3c cf 3b
       0.07587936 0.09723524 0.027742676 0.006324303
000180 73 17 9a 3c 38 9d 8d 3d ef 01 8b 3d 44 15 cd 3d
       0.01881001 0.06914753 0.06787478 0.10013822
000190 b1 c7 2b bc 8c a9 6d 3c 40 8a 64 bd 57 13 6a bd
       -0.010484622 0.014505755 -0.055795908 -0.05714735
0001a0 08 86 ac bd 13 72 82 bc f2 1f 5f bb ad b8 29 bd
       -0.08424002 -0.015923535 -0.003404614 -0.041435886
0001b0 b0 26 ae bd 71 55 56 bd 54 35 1d bc d5 60 a5 bc
       -0.08503473 -0.052327577 -0.009595234 -0.020187775
0001c0 c9 74 89 bc 20 97 e9 bd a3 71 b4 bd fa 7b 00 bd
       -0.01677932 -0.11405778 -0.08810737 -0.031368233
0001d0 24 75 4e bc ac e7 cc 3c 08 5f 97 bd f2 4c 3e bd
       -0.012601171 0.025012814 -0.07391173 -0.0464601
0001e0 29 1b 03 3d 98 9b 86 3d be 2e c1 bb 98 3b 07 bd
       0.032008324 0.06572646 -0.0058954647 -0.033015817
0001f0 bf 15 9e bd 43 08 b2 3c bf 34 c8 3d 92 aa cb 3d
       -0.077189915 0.021732455 0.097756855 0.09944643
000200 ff 88 b8 3c b4 9d dd 3c 87 93 11 3d 52 b8 d2 3d
       0.022526262 0.027052738 0.035541084 0.102890626
000210 91 3f db 3d 06 57 81 bc a4 aa 68 bd 74 90 35 bd
       0.10705484 -0.015788566 -0.05680336 -0.044327214
000220 7b 48 5e bc 91 2a ba 3d 00 cb 4a bd 29 e5 e3 3c
       -0.013567085 0.0909015 -0.049510002 0.027819233
000230 2d de 93 bb 91 cc 5b 3a 60 7a aa bd fd a7 3b bc
       -0.0045125694 0.000838467 -0.083241224 -0.011453626
000240 2e 37 a4 bd aa b0 a6 bd 47 25 d9 bc ab e0 27 bd
       -0.08018337 -0.08139165 -0.026507033 -0.040985744
000250 e1 e1 5c bc d6 6f 88 bd 4f ac df 3c 38 e8 1d bc
       -0.013481588 -0.06661956 0.027303843 -0.009637885
000260 bb 40 08 3e 02 eb 8c bc ff 73 df bb 8f 1f e4 bc
       0.13305943 -0.017201904 -0.0068192477 -0.02784708
000270 39 2d 30 3d 4d 4c 53 3d 23 8a 51 bd 7d ac 44 3d
       0.043011878 0.051586438 -0.051157128 0.04801606
000280 37 fa ed 3c 3e 2f d4 3d 35 0f c9 3d 65 d1 f2 3d
       0.029049976 0.10360573 0.09817354 0.11856345
000290 af 0e ba 3d bc 21 f4 3c 0c 4e 0f 3c 6b 9b c9 bc
       0.09084832 0.029801242 0.008746635 -0.024610242
0002a0 31 e6 95 3c 8b 05 a6 3d c1 ba e3 bd 09 f6 ec 3c
       0.01829824 0.08106526 -0.11119605 0.028925912
0002b0 fb 64 35 3c 56 71 ce 3c 74 33 03 3d af 37 01 3d
       0.011071439 0.025200527 0.03203149 0.031547245
0002c0 8a b2 69 3d c1 9c 1c 3d 98 c2 13 bb 22 0e e3 bc
       0.057055034 0.03823543 -0.0022546407 -0.0277167
0002d0 d9 ff 95 3d 3e fc 14 3d 1e 97 21 bb ad b6 6b 3d
       0.0732419 0.03637337 -0.0024656723 0.05754726
0002e0 cd 39 04 bd 37 9d 7e 3d 13 dc 32 3c 6a ef 91 3c
       -0.032281686 0.06216165 0.010916728 0.017814357
0002f0 f9 c6 8c 3c 32 dc b4 3c d4 7d d8 3c 7b 2d 4f 3d
       0.017184721 0.022077654 0.026427187 0.050580483
000300 42 34 61 bc e2 15 b3 3d 03 be 96 3c fe 36 4c bd
       -0.013745369 0.08744408 0.018401152 -0.049857132
000310 bd af 28 3d a7 a1 46 bd c4 25 b8 bc e5 46 06 bd
       0.041183222 -0.048494007 -0.022478946 -0.032782454
000320 88 3f 76 bd 37 d6 4e bd 66 b5 30 3c 37 c0 4b 3c
       -0.060119182 -0.05049726 0.010785436 0.012435964
000330 04 04 2a bc be 52 a2 3d 58 1f 05 bd 2e a1 90 3d
       -0.010376934 0.07925938 -0.032500595 0.070619926
000340 56 d5 30 bd 39 1c 4b bc d5 da 8d 3d 91 fd 55 3c
       -0.043172203 -0.0123968655 0.069265045 0.013060943
000350 c0 25 cd bb 53 cb 04 3d 99 70 e8 3c fd 4a 30 3d
       -0.0062606037 0.032420468 0.028374003 0.043040264
000360 8a 65 be 3c 1a f5 97 3d 40 e1 99 3d 46 69 e7 3d
       0.023241777 0.07419796 0.07513666 0.11299376
000370 ea 2c 1e 3e af a1 3f ba cb d1 3a 3d 3e b1 97 3d
       0.15446821 -0.00073101645 0.04561023 0.07406853
000380 4e 34 e0 3c 95 47 62 3d bc a1 2d 3d e4 7f af bc
       0.02736869 0.055244047 0.04239057 -0.021423288
000390 0e ba 34 3d db 60 02 3d 3d b6 b0 3d 34 da 5a 3d
       0.044122748 0.03183065 0.08628509 0.05343075
0003a0 f9 8c 92 3d 62 9c d8 3c b5 55 7c 3d c1 0a 12 3d
       0.07155795 0.026441757 0.061605174 0.035654787
0003b0 fe 2d df 3c b0 33 28 3d 39 92 47 bc 42 cc 97 bd
       0.02724361 0.041064918 -0.012180858 -0.07412006
0003c0 36 c8 0c 3d c4 fc d4 3c 8e 04 f4 3b 7b fc 22 bd
       0.034370624 0.025999434 0.007446832 -0.039791565
0003d0 24 43 b6 bd e2 2a e9 3c ac 83 69 bc 55 a4 d0 bc
       -0.08899525 0.02846283 -0.014252584 -0.025468985
0003e0 e8 89 53 bd c3 3e cc 3a 8c ca 17 3d 56 d2 25 bd
       -0.05164519 0.0015582669 0.037058398 -0.040483795
0003f0 53 b3 88 bd ef 95 d1 bd 0c 0f 82 bd eb 32 6b bc
       -0.066748284 -0.10233676 -0.06350526 -0.0143554015

fc1.bias f4 [120]
000000 90 76 e5 bd 6d 24 a5 3e c7 f3 78 3d a1 b7 fa bc
       -0.112042546 0.32254353 0.06077936 -0.03060514
000010 53 6a a4 bd 91 36 de 3c 46 d6 99 3d d1 11 57 3d
       -0.08028092 0.027125629 0.075115725 0.052507225
000020 30 87 82 3d b4 04 b9 bc 76 26 a6 3d 5c ec 46 bd
       0.06373441 -0.02258525 0.081128046 -0.048565254
000030 a3 da cf 3c a5 d9 77 3c 42 23 0e 3e 84 a7 2d bd
       0.025372809 0.015127574 0.13880637 -0.042396083
000040 31 0b f0 3d b8 02 65 3a c7 b2 da 3c 4a 8e 31 bd
       0.117208846 0.0008736062 0.026696576 -0.043348588
000050 22 b8 93 bd ba 21 05 3e 56 51 0b 3d 37 3d 0f be
       -0.07212855 0.13001147 0.034013115 -0.13988195
000060 d9 55 0e 3d 77 4b a5 bd 2f 41 16 3d f7 ba 5c bc
       0.03474984 -0.080710344 0.036683258 -0.01347231
000070 5d 03 b0 bd 13 16 52 3d 17 5c 2f bd 2c 98 88 3c
       -0.085943915 0.051290583 -0.042812433 0.016674124
000080 fc 99 f7 bc 88 02 3a 3c a3 22 38 3d 16 3d 8f 3d
       -0.030224793 0.011353143 0.044954907 0.06994073
000090 36 7d 9e 3d e1 b6 7b bc 75 15 69 3d 7f 48 df bc
       0.07738726 -0.015363426 0.05690523 -0.027256249
0000a0 ef 3d 16 3e 07 29 2c bd ef ff 0f 3e 7a ec 18 3d
       0.14672063 -0.042031314 0.14062475 0.037334897
0000b0 1c fc 02 bd 04 f1 b1 bb bb 48 c8 3b b4 33 de bc
       -0.03197871 -0.0054303426 0.006112186 -0.027124263
0000c0 6a 1d b2 bb 87 3f 0d be 2d aa 05 be 53 38 90 bd
       -0.0054356353 -0.13793765 -0.13053198 -0.07041993
0000d0 87 96 d7 3d d1 18 92 3d a1 2f f3 3d a3 46 59 bd
       0.10526758 0.071336396 0.11874319 -0.05304588
0000e0 83 36 b3 3d fc f6 eb bc 16 b1 f7 3d 83 2e 0a bc
       0.08750632 -0.028804295 0.12094323 -0.008433941
0000f0 07 8d d9 3c ef 0e 14 3d 99 49 98 3d 44 45 b1 bd
       0.026556505 0.036147054 0.07435913 -0.086557895
000100 c5 79 b5 bd 4a 2e 2c 3d 8a 7f 03 3d cc 78 12 3d
       -0.08861116 0.042036332 0.032104053 0.035759732
000110 24 bd 0d bc ef 5a 68 3e 80 87 10 bd 06 8f 50 3c
       -0.008651052 0.22690938 -0.035285473 0.012729412
000120 1a 05 f8 3d 16 d8 03 3e 74 5a 84 bd 07 35 a8 bc
       0.12110348 0.12875399 -0.06462565 -0.020533098
000130 c5 8e 85 3c 30 89 4a 3c 27 72 4f 3d 25 86 42 3d
       0.01630343 0.01236181 0.050645974 0.04749121
000140 4c 6e c3 bd f1 f2 54 bc d2 ed 0a 3d bb 85 fa 3d
       -0.09542522 -0.012997375 0.03391821 0.12232538
000150 80 ac b5 ba 2e 38 41 3c 9e 37 e9 bc 35 f5 e9 3c
       -0.0013860613 0.011793179 -0.028468903 0.028559307
000160 a2 29 25 be ab 0b 1a be e3 4f b0 3d fe c5 ec 3d
       -0.16129163 -0.15043513 0.08608987 0.115612015
000170 73 24 e7 3b 83 ee 8f 3c 2f 8a 01 3d 7b 16 74 3c
       0.0070539056 0.017569786 0.031625923 0.014897938
000180 94 9f f6 bb 75 c0 03 3e af 9d cf ba cf 45 e9 3c
       -0.0075263474 0.12866385 -0.001583984 0.02847567
000190 74 73 a8 3d 91 90 eb bc 59 7d 0d 3e 48 eb 81 bb
       0.08225146 -0.028755458 0.13817348 -0.0039648153
0001a0 68 ee 6b 3e 4d be f4 bc a2 e4 c9 bc f0 40 9c bd
       0.23040164 -0.029875899 -0.024645153 -0.07629573
0001b0 ec 4a 80 bd fb aa e4 bc 35 4f 61 3d e1 55 f8 bc
       -0.0626429 -0.027913561 0.05500718 -0.030314388
0001c0 4d 9a b3 bd 7f 68 92 3c 22 71 da bc 1f bd 08 bd
       -0.08769665 0.017872093 -0.026665274 -0.033383485
0001d0 42 f5 2c 3d fb b4 99 3c 6d b7 3f bb f7 b0 3d bd
       0.042226084 0.018763056 -0.0029253617 -0.046311345

fc2.weight f4 [84, 120]
000000 2e e8 d3 ba bc 73 22 be 28 62 07 3d 48 21 6c 3c
       -0.0016167217 -0.15864462 0.033052593 0.014412232
000010 38 a3 4e bd af bf 57 3d a2 d9 8e bd a3 e9 b3 3d
       -0.050448626 0.052673038 -0.06975104 0.08784797
000020 3b ee b1 bd 95 0b e3 bd 56 6f fd 3d 9c 1d 4a bd
       -0.08688017 -0.110861935 0.12374751 -0.049344644
000030 74 1e ca bd b4 44 88 bd 54 ac 0e bd 67 5b 8a 3d
       -0.0986909 -0.06653729 -0.034832314 0.06755715
000040 84 b8 ba bd db f0 32 ba b5 3f b2 bc 75 3a 5e 3d
       -0.09117225 -0.00068260514 -0.021758894 0.054254968
000050 0b 5e 41 3d 57 ce cb bd 9c 98 17 be 88 4a e6 bb
       0.047208827 -0.099514656 -0.1480431 -0.007027928
000060 5f 78 ac bd 81 bc b4 bc ee f6 66 bc dc 78 ae bb
       -0.084213965 -0.022062542 -0.014096959 -0.005324466
000070 df 4b 08 3e f5 a2 19 bc 03 0d cd bd 5a 87 e8 bc
       0.13310193 -0.009377231 -0.100122474 -0.028384853
000080 1c 18 1d 3d e6 27 9b bd 02 af 3e 3d 10 82 e6 bd
       0.03835307 -0.075759694 0.04655362 -0.11255276
000090 6e 28 a1 bd e8 e0 ef 3d d1 d9 8c 3d 46 8c e4 bd
       -0.078690395 0.11712819 0.06877483 -0.111595675
0000a0 9d 26 3f 3c 07 6a 21 3c 51 40 77 bd 2b 63 99 3d
       0.011666921 0.009851939 -0.06036407 0.07489618
0000b0 43 6c ef 3d 24 e5 90 3d a3 1b 3d 3d 5b 38 b5 bb
       0.11690571 0.07074955 0.046168935 -0.0055303997
0000c0 a2 07 53 bd 52 cb 9a bd 16 b5 1e bc 92 fb 66 bc
       -0.05152095 -0.075583115 -0.009686729 -0.014098065
0000d0 af b7 d8 bd bf c6 88 bd ce a5 58 bc ab 02 27 bc
       -0.1058191 -0.06678533 -0.013223125 -0.010193507
0000e0 95 3e 73 bd cb 2c f2 3c 3c 0b 92 bc 2c 6e e6 3a
       -0.059385855 0.029562375 -0.017827623 0.0017580441
0000f0 a1 36 14 3d ad 99 d9 3d fe a4 56 bd c2 45 13 bc
       0.03618491 0.106250145 -0.052403443 -0.0089887995
000100 48 d8 da 3d 3b 0d 1f 3d ab 6e 7e 3c 68 f0 e8 bb
       0.106857836 0.038830977 0.015529315 -0.007108737
000110 3e 0c 9b 3d 07 3a a2 bd 43 42 70 3d 1f d0 6f bd
       0.075706944 -0.07921224 0.058656942 -0.05854809
000120 51 a0 5a bc e8 8f 07 3d cc 35 8b 3d 16 60 c3 3c
       -0.0133438865 0.033096224 0.0679737 0.023849528
000130 a0 6a 32 bd 4d a3 be 3c c7 95 b5 bd 9b 9b 5a 3a
       -0.043558717 0.023271227 -0.088664584 0.0008339227
000140 c7 ad 98 3d 7f 8f c8 ba b1 8f bb 3d ee 10 c8 3b
       0.074550204 -0.0015301554 0.09158266 0.006105534
000150 60 2d 4e 39 13 06 83 bb 17 7e 94 3d b3 81 03 3d
       0.00019662594 -0.003998527 0.07250612 0.032106113
000160 fe 4e de 3b e3 27 d2 3d ad 97 70 bd 0c b8 92 3d
       0.006784319 0.10261514 -0.0587384 0.071640104
000170 71 7c 5e bd 1b 3a c1 3d 2b 43 02 3d db e6 f2 bc
       -0.054317895 0.09434911 0.031802338 -0.029651096
000180 72 0b 56 3d c2 d6 36 3d 96 30 9d 3d b7 ec ce bc
       0.05225701 0.044638403 0.07675283 -0.025259359
000190 86 cb 72 bc 93 00 c4 bc e9 88 a7 3c 0c a4 04 bd
       -0.014819032 -0.023926055 0.020451026 -0.03238301
0001a0 a0 16 b5 bc 5f 8b aa 3a 2c fe 2c bb 67 ee 35 bd
       -0.022105515 0.0013011507 -0.0026396615 -0.04441681
0001b0 be b3 56 bd 56 96 1f bc 8e f9 65 bd 88 9b 68 3b
       -0.05241751 -0.009740433 -0.056146197 0.0035493094
0001c0 2b 77 44 3d 79 75 8c bd 2d aa d9 bd 66 f2 a6 3d
       0.04796521 -0.06858344 -0.106281616 0.081517026
0001d0 97 3b 12 3d 5f 48 a0 bd 4a 66 17 3d a6 23 95 bd
       0.03570136 -0.07826304 0.036962785 -0.0728219
0001e0 8f 0c bc 3d b3 43 e6 3d 19 28 64 3c 42 6d 12 be
       0.09182083 0.11243381 0.013925576 -0.14299491
0001f0 de 52 72 bc d2 ea 16 bd 39 5f 10 be 10 0a 9b 3d
       -0.014790265 -0.036845036 -0.14098825 0.07570279
000200 04 e6 af bc 7f cb f2 3b 82 b4 f5 bd ff bf e9 3d
       -0.021471985 0.0074095125 -0.1199732 0.114135735
000210 8d 27 50 3b 60 91 aa 3d 26 df 89 3d b7 fe 9c 3d
       0.0031761855 0.08328509 0.06732015 0.076657705
000220 2c 17 78 3d 1c a6 41 3d 52 bb 71 bd 57 07 82 bd
       0.060568973 0.047277555 -0.059016533 -0.06349056
000230 ca db f0 bd 7b 2b ec 3c 75 54 15 bd 32 bf a1 bd
       -0.117606714 0.028829327 -0.036457498 -0.07897796
000240 78 82 04 bd ec fe 61 3d 62 9f 9d 3d 3d c8 68 3d
       -0.032350987 0.055174753 0.076964155 0.056831587
000250 83 aa 27 bd 06 ba 3c bd 7e 5c 49 3d 83 ff c0 bd
       -0.040934097 -0.046075843 0.049160473 -0.09423735
000260 5e 3b 10 3e a5 d9 0a bd 9a 46 bc bd 83 9e 08 bd
       0.14085147 -0.03389897 -0.09193154 -0.033354294
000270 54 04 97 3d 71 ea e1 bd 06 7e 17 be c2 1e 8c 3d
       0.073738724 -0.11031044 -0.14794168 0.06841804
000280 c3 0b 59 3d 3e 8f 40 3d 28 6b ca ba f7 1e 54 3d
       0.052989732 0.047011606 -0.0015443312 0.051787343
000290 fc 72 c1 bd 8e bb 80 bc 27 b7 94 3d ee 9a 0a bd
       -0.0944576 -0.015714433 0.07261496 -0.03383916
0002a0 e3 18 bb bd 77 7c 71 3d 3d b6 55 3d e8 6f 98 bc
       -0.09135606 0.05895659 0.05217575 -0.018608049
0002b0 14 12 8e 3d 17 f4 a9 3c 77 22 2c be 4f 31 58 bd
       0.06937042 0.020746274 -0.16810022 -0.0527814
0002c0 ef ad a6 bd 06 6c d9 3d 08 ed 8c 3c 37 7f 82 bc
       -0.08138644 0.10616307 0.017202869 -0.015929801
0002d0 f4 ba c6 bd cc 84 c9 bd 87 45 98 3d c4 27 09 3d
       -0.09703627 -0.09839782 0.07435136 0.03348519
0002e0 da ad 23 3d dd d8 f6 bb 05 a2 1b bd 3c 87 f2 bd
       0.03996072 -0.0075331763 -0.03799631 -0.118422
0002f0 bd 78 eb 3c 4c aa d3 3d 19 67 9c bc 83 5e 8a bd
       0.028744096 0.10335216 -0.01909213 -0.06756308
000300 47 46 ef 3d e0 28 36 3d 5e ee 21 bd 25 36 72 3c
       0.11683326 0.044472575 -0.039533965 0.014783417
000310 b1 49 3a 3d e4 ad 97 3d 52 ed 01 3d 55 35 74 3d
       0.045480434 0.07406214 0.031720467 0.059621174
000320 a6 20 f9 3c 70 d6 23 3d c7 3e bb 3d 1e cc fa bd
       0.030411076 0.039999425 0.09142833 -0.122459635
000330 aa 68 90 bd 24 4a 83 3d 2d 30 08 be da 29 77 3d
       -0.07051213 0.064106256 -0.13299628 0.060342647
000340 ba 0f 85 bc 9b 19 34 bc 09 87 d9 bd 8e b6 de bb
       -0.01624285 -0.010992433 -0.10621459 -0.0067966646
000350 ae bf 36 3d b4 47 cb bd 3e f1 a5 3c e9 a0 bc 3c
       0.044616394 -0.09925786 0.020256635 0.023025947
000360 c5 41 dd 3d 4b 2a 58 bd 67 bb fa 3c ba 13 39 bd
       0.1080356 -0.05277471 0.030606939 -0.04518483
000370 cf 48 d2 bd 3e d3 0f 3c e2 48 fd 3b f9 0a 57 3d
       -0.102677934 0.008778391 0.0077296356 0.0525007
000380 ba ed be 3d f9 0d ad 3d f0 66 fc bd f7 39 7d bd
       0.093226865 0.08449931 -0.12324321 -0.061822858
000390 45 ee 44 3b e3 79 b7 bd 33 c1 c6 3c eb 09 04 3e
       0.0030049246 -0.08958795 0.024262046 0.12894408
0003a0 17 62 76 3d 55 66 71 3c 0c a6 1d bd 15 bb 89 3d
       0.06015214 0.0147338705 -0.038488433 0.06725136
0003b0 68 71 19 3d 7a 76 b8 bd 16 0e 19 3d e2 e8 ed 3c
       0.03746167 -0.090069726 0.03736695 0.029041711
0003c0 4d c9 67 bc b7 70 b1 bd 5a d5 17 3c cc 87 2c 3d
       -0.014147115 -0.08664077 0.009267176 0.042121693
0003d0 2c 5a 02 3c 05 c8 60 3b f0 e5 49 3d c6 88 aa bd
       0.007956069 0.0034298908 0.04929155 -0.08326869
0003e0 4a ed ae bd c7 38 89 bd 6f 58 25 bd 49 f8 63 3d
       -0.08541353 -0.067002825 -0.04036754 0.055656705
0003f0 05 22 b2 3d 78 2c b3 3d 95 c6 1b 3d 17 9e 11 bd
       0.08697895 0.08748716 0.03803118 -0.035551157

fc2.bias f4 [84]
000000 1c 87 52 bd 6e 7d 53 3d 89 03 9f 3c e2 93 d4 bd
       -0.05139838 0.05163329 0.019410865 -0.10379769
000010 a5 84 44 bd 65 45 2e 3e 69 0e 1b 3e 1c 6d 5e 3e
       -0.047978062 0.1701866 0.15142216 0.2172131
000020 4d 9a da 3d b0 a5 f9 3c 43 06 2b bd ef 2c 63 bd
       0.10673962 0.030474514 -0.04175402 -0.055462774
000030 87 03 cb 3d 46 4f 24 3e 06 7f 53 bd 15 cc 72 bc
       0.09912782 0.16045865 -0.05163481 -0.014819165
000040 ce 78 ab 3d e1 be 4a 3e f2 87 01 be f1 dc 2d 3d
       0.08372651 0.19799377 -0.12649515 0.042447034
000050 dd 77 f0 3d 1a cd 9f 3e 2f 55 ab 3d c9 61 fd 3c
       0.11741612 0.31211168 0.08365857 0.030930417
000060 9e e6 84 bd 7b 79 29 3e ca 2d a8 3e 51 ab 11 bd
       -0.06489299 0.16550247 0.32847434 -0.03556377
000070 18 a9 68 3e cf 7f 43 3c 49 26 b3 bd 44 1b 17 be
       0.22720754 0.011932327 -0.08747537 -0.14756495
000080 20 76 21 3d 88 b0 69 bd 21 36 37 3d 71 ca bd bd
       0.039419293 -0.05705312 0.044729356 -0.09267128
000090 aa 77 d8 3c 18 1e cd 3d 12 f5 8e 3d 12 78 87 bc
       0.026424248 0.100155056 0.06980337 -0.016536746
0000a0 f6 d0 4e be ca f3 d9 bd cb b3 09 3d a0 89 95 3d
       -0.201969 -0.10642202 0.03361873 0.073016405
0000b0 18 f7 82 3e 0c be c2 3d 86 66 8b bd db 97 e2 3e
       0.25579143 0.09508905 -0.06806664 0.44256482
0000c0 c6 34 16 3e c8 af cb 3d d3 ae ba 3b 07 9d 61 3e
       0.14668569 0.09945637 0.00569711 0.22032557
0000d0 11 66 61 bd c1 68 c3 3d cd 37 bf 3d 54 8f 5f bd
       -0.05502898 0.095414646 0.09336815 -0.054580048
0000e0 8d ed 11 bc a9 1f 22 3d fe 96 3b bd de c3 a8 3e
       -0.008906734 0.039580975 -0.045798294 0.32961935
0000f0 1a ec ea 3d 5f 6d a4 3d fc 7d 07 3e 9b 0b 86 bd
       0.11470814 0.080286734 0.13231653 -0.06545182
000100 61 83 d8 3c e0 7a b7 3c 88 ef 68 3d 2d 6f b6 3e
       0.026429834 0.022397459 0.05686906 0.35631695
000110 ba 0f 59 bc 51 3b 18 3b 03 8b df 3d c1 fa 91 3d
       -0.013248378 0.0023228715 0.10915186 0.07127906
000120 91 b6 ba 3d e5 28 43 3e 0e c2 f1 3d 25 5d 15 3e
       0.09116853 0.19058569 0.11804591 0.14586313
000130 9f 62 46 bd 59 83 9d 3d 56 6d cb 3c e0 e8 a3 3d
       -0.048433896 0.07691068 0.024832409 0.08003402
000140 bd 53 69 3c 8c 8d fc 3c 17 25 a6 bc 87 8a 4d 3e
       0.014241156 0.030829214 -0.020281358 0.20072375

fc3.weight f4 [10, 84]
000000 6a 06 97 3d 68 24 99 3d da ca 1d 3d bb 69 6c 3e
       0.0737427 0.07477647 0.038523532 0.23087208
000010 0b 76 10 bc dd ff 99 bc 77 94 24 be a5 9d 3e 3e
       -0.008817206 -0.018798763 -0.1607226 0.18614824
000020 bb 1a 5d bd 28 60 98 3d 8a cf ea bc 5f 06 51 bd
       -0.05398057 0.07440215 -0.028663415 -0.051031467
000030 a4 ed 17 bd b5 3c 70 3d 66 02 dc 3d c1 8e 91 bd
       -0.037091866 0.058651645 0.10742645 -0.07107306
000040 04 1f 80 3c bd 45 c5 3d a8 39 1d 3e 9d 2f ac bd
       0.01563979 0.09632442 0.15354025 -0.08407519
000050 a0 1b cc bd 8a cb 0e 3e db b6 13 3e a7 ed 1d 3d
       -0.099662066 0.13944831 0.14425223 0.03855672
000060 a8 9c c4 bd 5d ea cf bd 7c 30 75 3d 9f d4 fa 3d
       -0.09600192 -0.10152123 0.05986069 0.122475855
000070 ba cf b3 3e 68 cc 0f bd 6a 3e 78 bd 26 37 14 3e
       0.3511942 -0.035107046 -0.060606398 0.14474162
000080 43 71 b8 bc 9a 0b a7 bd bf d2 b9 bd 6a f1 48 3d
       -0.022514945 -0.0815651 -0.090734 0.049058355
000090 7f c6 8e be 3a 6f 2b bb 15 e4 cf bd 79 c0 45 3e
       -0.27885816 -0.0026158825 -0.10150925 0.19311704
0000a0 ff 7e 18 bd dd e8 5d 3e b3 81 12 3e 1f 94 48 be
       -0.037230488 0.21670862 0.14307289 -0.19587754
0000b0 50 8a 8e bd cf 31 25 3c 82 bf 9a bc db 7a 84 3e
       -0.06959975 0.010082676 -0.018890146 0.2587498
0000c0 ff 64 e7 3c f8 e6 44 be 0b 6f 85 3c c2 86 e7 bd
       0.0282464 -0.19228733 0.016288301 -0.11305
0000d0 4b 66 be 3d bd e7 85 3d 41 e4 5e be 3b ec 3c be
       0.092968546 0.06538341 -0.2176676 -0.1844949
0000e0 f5 6b d7 3d fa b4 0e 3e 89 d8 50 3d ec 08 e8 bd
       0.10518638 0.13936225 0.050987754 -0.11329827
0000f0 5c e4 52 bd 70 35 18 3e 7c 0e 87 3c b1 e8 a3 bd
       -0.05148731 0.14864135 0.016486399 -0.08003367
000100 51 5b f9 bd 3e 25 06 3e b3 74 d6 3d f5 ca 69 be
       -0.1217562 0.13100144 0.10471477 -0.22831328
000110 25 5d 0f be 32 08 08 3c 7d ad 7b 3e 71 d7 0d bd
       -0.14000376 0.008302735 0.245779 -0.03462929
000120 5a 5c 05 3e e5 13 db 3d 21 45 4c 3e d6 d3 62 be
       0.1302351 0.10697154 0.19948246 -0.22151121
000130 cb 78 48 3c ba c5 a9 bd 91 2b e0 bd 61 68 95 bd
       0.012235831 -0.082896665 -0.1094581 -0.07295299
000140 46 89 36 be 8e 5e 7b bd 61 f6 92 3d a8 51 73 3e
       -0.17825803 -0.06136947 0.07175899 0.23761618
000150 18 1f 75 3e eb c3 3d bc bf 02 ab bc a6 bb 49 bd
       0.23937643 -0.011582355 -0.020875333 -0.04925122
000160 e1 37 9e bd 91 1f 0e bd af 9d 40 be 20 ae c6 bd
       -0.07725502 -0.034698073 -0.18810152 -0.097011805
000170 0b 88 4c 3d 03 17 10 3e f0 2b 5b 3d aa ff a0 3d
       0.04993443 0.14071278 0.0535087 0.07861264
000180 f4 1e 4f 3e 7f 0c 43 be 83 29 85 bb 16 c0 b9 3c
       0.20226651 -0.19047736 -0.0040637865 0.022674602
000190 c9 8a 79 bd c9 6e ca 3c 98 22 81 3c 1d 34 ba bd
       -0.06092337 0.02471103 0.015763566 -0.09091971
0001a0 d6 1d 95 bb 6f 6e 85 bd 61 7e ed bc 19 40 3f bd
       -0.004550676 -0.06515204 -0.028990926 -0.046691988
0001b0 80 d8 d6 3d bc d1 47 be c0 06 dd 3d 01 1d 9b 3d
       0.10490513 -0.19513601 0.10792303 0.075738914
0001c0 9c 1f 10 bd bd 7e 08 3c 69 6d c1 bc d2 2e 98 3d
       -0.035186395 0.008330998 -0.023611741 0.07430805
0001d0 0a f3 76 bd 14 5b 92 bd 38 3b e0 bd df 34 87 3c
       -0.060290374 -0.07146278 -0.10948795 0.016504703
0001e0 96 51 08 3e 9c ac 0e be 4a 04 29 bd f1 2b c3 3d
       0.13312373 -0.13933033 -0.041263856 0.095298655
0001f0 dc 00 66 3e 17 4f c7 3e 83 27 0f be c9 e9 d2 3d
       0.22461265 0.38927528 -0.13979916 0.10298497
000200 6f aa bb bd d8 c0 26 bc a4 86 02 3d 70 8c 81 be
       -0.09163367 -0.0101778135 0.031866685 -0.25302458
000210 b8 10 16 be 7e 73 69 be 1a ad e2 bc ad e0 e4 bd
       -0.14654815 -0.22797963 -0.027670432 -0.11175666
000220 81 3c 63 3e b2 96 a1 3e 89 64 e3 bc e7 b1 0d 3e
       0.22191049 0.31560284 -0.0277579 0.13837396
000230 cc 27 b1 bc af 80 9a bd 44 e4 33 bd 31 8b 9d be
       -0.021625422 -0.07544076 -0.043918863 -0.30770257
000240 cd 1f e2 3a 99 70 0a 3e fa 4c 45 3e e9 63 2d 3c
       0.0017251909 0.13519515 0.19267645 0.0105829025
000250 89 dd 44 3e 2f 23 3f 3e 22 fa aa 3e 55 8c a9 be
       0.19225134 0.18665765 0.3339396 -0.33114877
000260 b5 83 b0 bd de fb 2b be bd 93 7d bd 4d d3 8c bd
       -0.08618871 -0.16795298 -0.061908472 -0.0687624
000270 27 2b 0c 3b 62 5e 9e bd 70 be 4c be 27 8b 9b bd
       0.0021388025 -0.07732846 -0.19994521 -0.075949006
000280 b0 cf a3 bc f6 46 1d bd 50 93 63 be 49 c6 ff 3d
       -0.019996494 -0.03839775 -0.22224164 0.12488992
000290 bd dc 92 3e 75 42 b2 3d d2 f5 4b bd 9f 4c 89 be
       0.28684035 0.08704082 -0.04979498 -0.2681627
0002a0 64 f6 6e bd 4f 76 b7 bd 85 d8 22 3d 80 09 3f 3e
       -0.058340445 -0.089581124 0.03975727 0.18655968
0002b0 27 c6 1d 3e 2b e3 5f ba 63 c4 6b 3d 85 9d 49 3e
       0.1540762 -0.00085406256 0.057560336 0.19688995
0002c0 24 68 49 3d 47 fb cf bb 24 f1 b9 3d ce e9 cd 3d
       0.049171582 -0.0063470933 0.09079197 0.1005436
0002d0 a9 5b d7 bd f6 98 92 bd 9d 26 d8 bc 48 77 88 bd
       -0.1051553 -0.07158081 -0.0263856 -0.06663376
0002e0 8d 8e 8e 3c 3a c0 da bd 67 5d 96 3d 8f 28 4c 3e
       0.017401958 -0.106811956 0.07342034 0.19937347
0002f0 bf 88 49 3d 92 5b a3 bd b4 a2 87 bd 8c c8 8b bd
       0.049202677 -0.0797645 -0.0662283 -0.06825361
000300 52 d4 5f bd 39 95 f0 bc a7 0b 5d 3d 16 09 01 be
       -0.054645844 -0.02936803 0.05396619 -0.12601122
000310 6b b7 c7 3d 51 e9 08 bc c0 d7 16 bd eb fe ee 3c
       0.09751781 -0.008356408 -0.03682685 0.029174289
000320 2c ec 0f 3e cf 43 40 3d 8a e2 19 3e 41 8e c0 3c
       0.14054936 0.046939667 0.15027824 0.023505332
000330 30 a9 27 3e 8b 4f 2b 3e 20 1c 1b be d8 4d 51 3d
       0.16373134 0.16729562 -0.15147448 0.05109963
000340 ac 72 4c be ce fe ce bd cd dc e8 bd 74 2e 95 3d
       -0.19965619 -0.10107194 -0.113702394 0.07284251
000350 38 0f 58 3d 5b 64 02 be f3 52 97 bd 44 05 55 3e
       0.05274889 -0.12733595 -0.07388868 0.2080279
000360 10 77 d3 3d 2f b5 b5 3d f2 07 04 3c e4 e0 07 bd
       0.10325444 0.08872449 0.008058535 -0.033173457
000370 98 8e 61 3c 3d a6 15 be c3 fd d4 bd 1b 6b dc bd
       0.013766907 -0.14614196 -0.10399964 -0.10762616
000380 46 8b 65 3c 18 c9 a2 3e ab bf 0d 3c 86 e9 8f 3e
       0.014010256 0.31794047 0.008651654 0.28107852
000390 99 67 46 3d 0c d3 7c bc ab 5f 88 bd 87 cb 26 3d
       0.048438642 -0.015431177 -0.06658872 0.040721443
0003a0 19 40 9b 3d 15 f0 fc 3c ff f8 86 bd 55 f4 52 3e
       0.07580585 0.030876199 -0.06590461 0.20601018
0003b0 62 d9 4f bd 94 26 87 3c 7b ca 9a bd b4 77 7c bd
       -0.05074442 0.016497888 -0.07558151 -0.061637595
0003c0 5e 52 a8 bc e1 88 5b be 91 9f 0d 3e b6 fc 04 3e
       -0.020547088 -0.21438934 0.13830401 0.12987027
0003d0 4e d7 84 be 13 80 2e 3d 89 4e 05 3e cf 65 de bd
       -0.25945514 0.04260261 0.1301824 -0.10859262
0003e0 df ec 35 3d f0 8a 70 bc b5 13 3e 3d e5 77 10 3e
       0.04441535 -0.014681563 0.046405513 0.14108236
0003f0 00 98 55 bd bc 6e d1 bc 36 8d 9b 3d ed 16 63 3d
       -0.05214691 -0.025565498 0.07595293 0.055441786

fc3.bias f4 [10]
000000 b6 0b 44 be 97 d2 0c bf 72 4c 52 3e ae c6 6b 3e
       -0.19145092 -0.55008835 0.20536974 0.23025009
000010 30 38 1c 3f 3b 41 b8 be 30 2b d0 3d 00 d4 81 be
       0.61023235 -0.35987267 0.10164487 -0.25357056
000020 0b 81 92 3e f1 53 9d be
       0.28614077 -0.30728105
